# Parameters
nc: 80
scales:
  # [depth, width, max_channels]
  # n: [0.33, 0.25, 1024]
  s: [0.33, 0.50, 1024]
  m: [0.67, 0.75, 768]
  l: [1.00, 1.00, 512]
  x: [1.00, 1.25, 512]

# YOLOv8.0n backbone
backbone:
  # [from, repeats, module, args]
  - [-1, 1, Silence, []] # 0

  - [-1, 1, PatchEmbed, [96, 4]] # 1 [b, 96, 160, 160]
  - [-1, 1, SwinStage, [96, 2, 3, 7]] # 2 [b, 96, 160, 160]
  - [-1, 1, PatchMerging, [192]] # 3 [b, 192, 80, 80]
  - [-1, 1, SwinStage, [192, 2, 6, 7]] # 4 --F0-- [b, 192, 80, 80] p3
  - [-1, 1, PatchMerging, [384]] # 5 [b, 384, 40, 40]
  - [-1, 1, SwinStage, [384, 6, 12, 7]] # 6 --F1-- [b, 384, 40, 40] p4
  - [-1, 1, PatchMerging, [768]] # 7 [b, 768, 20, 20]
  - [-1, 1, SwinStage, [768, 2, 24, 7]] # 8 --F2-- [b, 768, 20, 20]
  - [-1, 1, SPPF, [768, 5]]

  - [0, 1, CBRM, [32]] # 10-P2/4
  - [-1, 1, Shuffle_Block, [192, 2]] # 11-P3/8
  - [-1, 3, Shuffle_Block, [192, 1]] # 12
  - [-1, 1, Shuffle_Block, [384, 2]] # 13-P4/16
  - [-1, 7, Shuffle_Block, [384, 1]] # 14
  - [-1, 1, Shuffle_Block, [768, 2]] # 15-P5/32
  - [-1, 3, Shuffle_Block, [768, 1]] # 16

# YOLOv8.0n head
head:
  - [[4, 12], 1, CGAFusion, [96]] # cat backbone P3 # args写实际乘系数后的通道数
  - [-1, 3, C2f, [96]] # 18 (P3/8-small)

  - [[6, 14], 1, CGAFusion, [192]] # cat head P4
  - [-1, 3, C2f, [192]] # 20 (P4/16-medium)

  - [[9, 16], 1, CGAFusion, [384]] # cat head P5
  - [-1, 3, C2f, [384]] # 22 (P5/32-large)

  - [[18, 20, 22], 1, Detect, [nc]] # Detect(P3, P4, P5)
